trained_model/gnn_model_07497e6d-6173-4108-9573-e6da9f96273a.pth (torch, 5646 bytes, 6 tensors)

conv1.lin_l.weight f4 [16, 14]
00000000: 4c92 85bc bd42 d6ba 4171 18bc 12d7 2cba
00000010: e171 8cbc f512 4ebc 682c ddbc d76e 933a
00000020: c23d d5bc a677 84bc 1ac9 993e edd9 febd
00000030: 5c30 0dbd d29e 823d 0962 45be 5677 2cbe
00000040: ce70 2cbe e148 4fbe 89c2 20be 762e 49be
00000050: 2a3e 27be 63f0 d7be 3a4c c5be 650e c0be
00000060: 6099 ee3f 5e18 85be f5b6 e1be 6b3b 943e
00000070: 9d07 5fbd b442 6ebc 75d3 8bbc c40f f4bc
00000080: 8114 61bd 8425 cbbc 2645 f9bc acd0 093d
00000090: f336 3dbd a136 33bd 08b3 0e3e 0137 853d
000000a0: d7d1 94be 5634 4a3d ff02 4abd 805f 45bd
000000b0: a25f fcbc 324d 8dbd fc32 8dbd 3677 83bd
000000c0: 2a4e 0dbd 4176 d43c e19a 9cbd 25b9 eabd
000000d0: 2cff ae3f 0bab a4bf f917 a7bf a1a4 193e
000000e0: ec6b 423c 4147 0bbc 4b58 d63b e71e d63a
000000f0: 0d07 72bb bc4a 693b e3f7 0c3b e6a5 5e3c
00000100: 4ea6 e6b8 3ed7 da3b 4261 243d d86c a8bd
00000110: a203 aebb 0c1a 1f3b 6d4a 0ebe 615f 22be
00000120: b2af 17be ee58 79be d455 0dbe 61b1 2fbe
00000130: e869 37be 633e b3be 7c4e c1be 89d9 e1be
00000140: b022 1940 b1d0 20bf ef74 363d 8e77 353f
00000150: 3b4e fdbd eb85 00be 5e7a 09be 1863 16be
00000160: 9e5f 46be 1fdc 85bd efca f3bd 9bf7 41bd
00000170: bd26 52be ea64 4dbe 4e88 c7be efa6 96be
00000180: 4778 393d 0714 cb3e f6e0 a33d cda5 95bd
00000190: 7b3e c0bd da01 e1bc 9ee9 17be 368a 963d
000001a0: a2d8 c8bc 00ba bebf 3542 d7be 7aeb 39be
000001b0: 9f91 54c0 1647 90bd 1c5b 4dbf f94b d3bf
000001c0: 0965 6dbd 94a5 b0bd 52ac 0ebd 5155 2ebd
000001d0: 7d66 38bd 2d0a 81bd 64d4 a5bd f027 1abd
000001e0: b60c 6ebd e159 97bd 8c74 8c3f 3133 663e
000001f0: 2cd3 91c0 5625 6a3e db19 67bd bd2d 71bd
00000200: c2da 75bc c174 94bd cd61 d6bd e861 58bd
00000210: 6af3 bcbd 3bfc 89bd 3fe9 fbbd ce68 03be
00000220: 31d5 6d3f b2e0 7d3e c2c7 99c0 51ed f93e
00000230: 6729 6dbd c526 65bd 820d 32bd 84a0 85bd
00000240: 27b4 91bd d2ad 95bd 5017 93bd 9480 3dbe
00000250: 2333 37be f1bd 2ebe b2d1 9e3f 1889 76be
00000260: 6a2e cc3d e222 953e f669 d4bb 6a91 09bd
00000270: 0bb0 85bc 58e9 f7bb e4c5 efbc 4c6a 9f3b
00000280: 5034 edbc 11ff 66bd e2da 27be ce55 4dbe
00000290: 6dcb d53f ecdb 1b3f 821b 6b3f b4eb 543f
000002a0: 56a8 39bc 8d70 05bc 2c6c abbc 3535 cdba
000002b0: b269 feba 97c1 babc 4e84 aabc f515 a4bc
000002c0: 75a6 7ebc 4612 9ebc 7d4f 713e 2141 cfbd
000002d0: 1951 b93c ee89 5a3d d78f cfbc 8611 1dbe
000002e0: 8c0f 01be 3253 6bbe 2acd b73d f4e3 84be
000002f0: 06ca dc3d b3c4 c0bd 5d4b 8abd d672 c03d
00000300: 28e7 26be 281f 81be 2793 febd bb6a b63d
00000310: 8aa6 d4bc 9d1a 11bd 5728 e1bc 9657 ecbb
00000320: 8c08 1dbd 2a17 26bd 4dc7 08bd 3923 3cbd
00000330: 0060 49bd f2ba 59bd 9279 c13e f20b 4f3c
00000340: bbea 903d fb0d c63d ea06 60bc d2ee 01bd
00000350: d8d3 e9bc e44b b6bc e207 8bbc 8d52 84bd
00000360: 6c25 5abd 902c 46bd 1dfc b4bd 7799 58bd
00000370: 144f 2e3f a341 84be 9102 383d ee08 fe3d
-0.016305111 -0.0016346794 -0.009304346 -0.0006593327 -0.017144145 -0.012577762 -0.026998714 0.0011248243
-0.026030425 -0.016170334 0.3003624 -0.1244391 -0.034469947 0.06377949 -0.19275679 -0.16842398
-0.16839907 -0.20242645 -0.1569921 -0.1964663 -0.16332307 -0.42175588 -0.3853472 -0.37510982
1.8640556 -0.25995153 -0.44084898 0.28951582 -0.05445062 -0.01454227 -0.017068604 -0.029792674
-0.054951195 -0.024798162 -0.03042848 0.03364627 -0.04619498 -0.04375327 0.13935483 0.06504632
-0.29066345 0.049366318 -0.049319264 -0.04818678 -0.03080732 -0.068994895 -0.0689449 -0.06419222
-0.03449837 0.025935294 -0.07646728 -0.11461095 1.3671622 -1.2864698 -1.3054191 0.15004207
0.011866551 -0.008500875 0.006541287 0.0016336114 -0.0036930472 0.0035597524 0.0021510057 0.013589358
-0.00010998231 0.006678491 0.040131815 -0.08223885 -0.0053104917 0.0024277 -0.13895579 -0.15856697
-0.14813116 -0.2435033 -0.13802272 -0.17157508 -0.17911494 -0.35008535 -0.3775519 -0.4411128
2.3927422 -0.6281844 0.04454511 0.7088555 -0.12368437 -0.12551086 -0.13425586 -0.14686239
-0.19372413 -0.065361254 -0.11903941 -0.047355276 -0.2052259 -0.20058027 -0.3897118 -0.29424235
0.04528072 0.39663717 0.08001892 -0.073070146 -0.09386917 -0.027466703 -0.14835212 0.073505804
-0.024517361 -1.4900513 -0.420427 -0.18156233 -3.321388 -0.070448086 -0.80217147 -1.650756
-0.057957683 -0.086253315 -0.034832306 -0.042561833 -0.045019615 -0.06300769 -0.08097151 -0.037635744
-0.05811759 -0.0739019 1.0973067 0.22480465 -4.557028 0.22865805 -0.056421142 -0.05888151
-0.015005769 -0.072488315 -0.10467873 -0.052827746 -0.09226115 -0.06737562 -0.123003475 -0.12832949
0.9290343 0.24792746 -4.8056345 0.4881387 -0.057900812 -0.055945177 -0.043469913 -0.065247566
-0.071144395 -0.07308544 -0.07182181 -0.1850608 -0.17890601 -0.17064644 1.2407744 -0.24075735
0.0996979 0.29128176 -0.006482358 -0.033585943 -0.016319295 -0.0075656585 -0.029269166 0.0048649665
-0.028955609 -0.056395594 -0.16392091 -0.20052263 1.6702706 0.6088245 0.9183885 0.83172154
-0.011331638 -0.00814451 -0.020925604 -0.0015656116 -0.0019410162 -0.022797389 -0.02081504 -0.020030001
-0.015542616 -0.019295823 0.23565479 -0.10119844 0.022621678 0.053354196 -0.025337143 -0.15338716
-0.12603587 -0.22980955 0.08974679 -0.25955164 0.107807204 -0.094125174 -0.06752656 0.09396903
-0.16299117 -0.25219083 -0.12430411 0.08907076 -0.025958318 -0.03542577 -0.027485056 -0.0072125895
-0.03833823 -0.040549435 -0.033393193 -0.04593203 -0.04916382 -0.0531568 0.37788063 0.012637125
0.07076021 0.09670635 -0.013673523 -0.031721897 -0.028543398 -0.022252984 -0.016971532 -0.06461058
-0.053258345 -0.04838234 -0.08837149 -0.05288073 0.68089414 -0.25831327 0.044924323 0.12404047

conv1.lin_l.bias f4 [16]
00000000: 96e2 81be 8b9c 3e3e 1f75 97be ac63 dc3e
00000010: 7ea8 9abd 1078 553e 2681 313f ae50 ad3f
00000020: 938e 5b3f f9f4 2b3f 8a5b 57bf b261 963e
00000030: 0da5 0ebe 07a4 74be a868 91be 58a8 08bf
-0.25368184 0.18614404 -0.29581544 0.43044794 -0.075516686 0.20846581 0.6933769 1.3540246
0.85764426 0.67170674 -0.8412405 0.2937141 -0.1393015 -0.23890696 -0.2840016 -0.5338187

conv1.lin_r.weight f4 [16, 14]
00000000: 310e e7bc 649f 22bd 8ee4 2cbc b487 e0bb
00000010: 6ddf c7bc 0c72 ecbc ad1a fdbc 1c38 40bd
00000020: 8a28 64bd ffcf c3bd 2bde 6abf 7234 2540
00000030: 9968 07bf 76b4 9a3c 0b94 07bd d2d4 de3c
00000040: c6f1 423c 8077 343c d739 e03c a7b5 2b3c
00000050: 6514 843a 99c5 903d 28d4 593b db6f 1a3c
00000060: a8aa b23f f275 a3bf dc28 fbbe 2e33 0b3e
00000070: 1533 37bd 903d 68bb d496 84bb 40da e3bc
00000080: 63d6 17bc a58e 24bc f6b9 01bd 8e55 fd3e
00000090: 2783 e63d 85a7 32bc 5ff1 6cbf a246 e43c
000000a0: c5ab 98bf fa7c 2a40 3806 973c ccbf 073b
000000b0: 6cbc 25bb d9f0 0ebb ef63 263c d2d1 953c
000000c0: 5c64 0db9 27e5 693d 8900 c23b bc1b 143d
000000d0: cbd8 443e b556 8ebf 048d bdbf 5003 c13c
000000e0: 2885 7bbc 9139 a5bc 186e 81bb 5d10 3c3b
000000f0: 123f a6bb 3a26 52bb ac4f 67bb 11a6 abbb
00000100: d616 5a3c 6214 5abc 6321 d6bd 54b7 2740
00000110: 0e4e d9bf 2e4d 3b3d bcdf 3abc dfc2 6d3d
00000120: 52ec 4a3c 602c 173b 6759 afbc 0bee aebb
00000130: 0d51 4c3c 4dd5 6cbd 8121 5abd 3e7b 03bc
00000140: 9a15 34bf ab5c f2bf a942 d53e 4c4e 03c0
00000150: cd64 3dbc f6d0 c2bc 9a32 283d 6110 1c3c
00000160: 1d72 453d 456b b53c 157b fa3b 15ea 3abe
00000170: 81bb 9bbd 1de3 d73c 78dc 0840 b66a 86be
00000180: b388 5dbf 43cb 2fc0 9b33 c73c 89ce d0bc
00000190: ed37 413d 6572 b3bc f3dc 15bd cf70 453d
000001a0: 9551 163c b0fd 233d 24b7 0bbc 4026 23bd
000001b0: be96 90bf dcb0 a0bf 53e2 06bf c4b4 85bd
000001c0: c694 703c d5ab 583d c00f e4bb de8c e8bc
000001d0: ed41 5b3d 3356 1cbd 9d3e 1b3d 2ca2 babe
000001e0: 1710 86bd 42bd 96bd 2862 6dbf 350d 4c3d
000001f0: d8b1 efbf 3c31 05c0 f257 19bd 8362 7b3b
00000200: 6237 45bd 6b3b b3bc 613c c53b aa4f c0bc
00000210: faad 853a 330b bdbe b6ca d3bd 48d7 8bbc
00000220: 1459 69bf 15e1 013e 52a4 01c0 a353 0cc0
00000230: 9143 e7bd de78 13bd 6275 8abd 516d 11bc
00000240: d2a8 08bd 741e 16bd 34ee edbc e4c4 b6be
00000250: 4b58 2ebe 74cf febd af09 91bf 4e44 0a40
00000260: 1f16 dbbe 8df9 b1bf 3a1c f5bc 7520 8dbd
00000270: 3888 153d 41ca a6bb 98e4 8d3c 4f03 06bd
00000280: 3bbf 84bc c381 01bf cf65 58be 68dd 3fbd
00000290: 9299 9dbf 18eb 153e 71c2 1bc0 dff1 29c0
000002a0: d38e bdbc 9035 d7bc 1fc6 fdbc cd13 773a
000002b0: a015 e1bc 80b6 cabc 9378 cebc f602 c4bd
000002c0: 1cde a3bd e26b 72bd 6ed4 88bf 470d 1340
000002d0: 3569 87be ada9 94be 1932 ab3d e450 2fbe
000002e0: 5c81 a2be fcef 6fbd 15dc b8bd b0e8 3dbe
000002f0: 81e0 11be ebce cebd c501 a93d 7588 a2bc
00000300: 46ff c2bc 9272 24be 1166 0abe 6d6b 88bd
00000310: eb7d e1bc 5361 d1bc e3a4 1bbd be86 6ebc
00000320: cdc4 c9bc 1281 7bbd 26de 1abd d27b f9bd
00000330: f5e5 7fbd ff7d 4bbd daef c7bf 77cd b7be
00000340: 3683 3e40 80a5 a9bf 279e 37bd 792c 25bd
00000350: 0088 49bd b432 b8bc 9e62 a2bc 1e6d fabc
00000360: b025 9abc 2bcd 2dbe eafc aabd ae2f 82bd
00000370: 5dd2 49bf b13f 0340 4150 053e 2ffe 3fbf
-0.02820501 -0.039702788 -0.010552539 -0.0068521146 -0.02439853 -0.028862976 -0.030896509 -0.04692851
-0.055702724 -0.095611565 -0.9174525 2.581326 -0.5289398 0.018884879 -0.03310017 0.02720109
0.011898464 0.011014819 0.02737133 0.010480321 0.0010076879 0.07068939 0.0033238027 0.0094260825
1.395833 -1.2770369 -0.4905461 0.13593742 -0.04472645 -0.0035437085 -0.0040463004 -0.02781403
-0.009267422 -0.010043775 -0.031671487 0.49479336 0.11255484 -0.010904198 -0.92555803 0.027865712
-1.192742 2.663878 0.018435583 0.0020713685 -0.002528931 -0.0021811037 0.010155662 0.018288527
-0.00013484195 0.057103302 0.005920474 0.036159262 0.19223325 -1.1120211 -1.480866 0.02356115
-0.015351571 -0.020169051 -0.003949892 0.0028696277 -0.0050734365 -0.0032066242 -0.003529529 -0.0052383025
0.013311109 -0.013310524 -0.10455587 2.6205645 -1.6976945 0.0457279 -0.0114058815 0.05804717
0.012385445 0.002306722 -0.021404935 -0.0053384355 0.012470496 -0.057820607 -0.053254608 -0.008024989
-0.7034546 -1.893453 0.4165242 -2.0516539 -0.011559677 -0.023781281 0.041063882 0.009525389
0.04820453 0.022145877 0.007644067 -0.18253358 -0.07604123 0.026353413 2.1384563 -0.2625329
-0.8653671 -2.746781 0.0243166 -0.025489109 0.047172476 -0.021905134 -0.036587667 0.048203286
0.009174724 0.040036857 -0.008527551 -0.0398314 -1.1296003 -1.2553973 -0.52689093 -0.06528619
0.014683908 0.052898247 -0.0069598854 -0.028387483 0.05352967 -0.038168143 0.03790151 -0.36451852
-0.06546038 -0.07360317 -0.927279 0.049817283 -1.8726149 -2.08113 -0.037437387 0.0038358278
-0.04814852 -0.021878919 0.0060191606 -0.023475487 0.0010198944 -0.36922607 -0.103413984 -0.017070428
-0.9115155 0.12683518 -2.0256543 -2.1926048 -0.11292184 -0.03600394 -0.0676067 -0.008876161
-0.033364125 -0.036650136 -0.029044248 -0.3569709 -0.17025869 -0.12441912 -1.133108 2.160419
-0.42790315 -1.3904282 -0.029920686 -0.06890956 0.03650686 -0.0050900285 0.017320916 -0.032718
-0.016204467 -0.50588626 -0.21132587 -0.04684201 -1.2312491 0.14640462 -2.4337428 -2.6553876
-0.023139393 -0.026270658 -0.03097826 0.0009425253 -0.027476132 -0.024745226 -0.025203979 -0.09570877
-0.080013484 -0.059184916 -1.0689828 2.2976854 -0.26447454 -0.29035702 0.08359165 -0.17120701
-0.31739318 -0.058578476 -0.09026352 -0.18545794 -0.14245798 -0.1009806 0.08252291 -0.019840458
-0.023803364 -0.1605933 -0.13515498 -0.06661115 -0.027525863 -0.025559103 -0.037999045 -0.014558492
-0.024629975 -0.061402388 -0.037809514 -0.1218182 -0.062475163 -0.049680706 -1.5620072 -0.35898945
2.9767585 -1.3253632 -0.04482856 -0.040325616 -0.049201965 -0.022485115 -0.019822415 -0.03056961
-0.018816799 -0.16972797 -0.08349021 -0.063567504 -0.78836614 2.0507624 0.13018896 -0.7499723

conv2.lin_l.weight f4 [4, 16]
00000000: 4c4a eebc f610 94be 7880 48bd 6f20 493f
00000010: 57a2 97bd d218 0240 2e61 cdbf 21b5 9a3f
00000020: c6d1 123f 04a2 3c3f 684b 993d 68d3 803f
00000030: 9dd6 be3a 7d4b ee3c d05c c13d 1e42 8f3c
00000040: 647f df3d fd58 69be 24c0 e5bd dd9d 06bf
00000050: cc60 833d 08de babf 54e2 72bc 61ab 28bf
00000060: 61b4 223f a478 863f 9c00 7d3f 97cc 7c3f
00000070: ecf4 083e 52e6 aabe 958a eebc 4194 c83e
00000080: 00b6 0abd 90dc 00be 7f7c 85bd c1b0 2bbf
00000090: f861 4cbd a404 d03f fca0 2fbc 7cc3 1bbf
000000a0: 112c b7bf 37f6 f1bf b78d 3b3e d4a0 033f
000000b0: 8887 37bd 1e8a 863d 36ef e33e 4a00 4c3d
000000c0: 7057 cfbb 30f1 94bc 0d4b 82bd 94dd 9c3d
000000d0: 4581 c6bb 2b5d e8be 3192 c33d f8c9 d3bf
000000e0: 1e18 36be 220b 0c3e ea6f 9dbd 2f37 3a3e
000000f0: 4e24 6ebd bbc4 95be 75c3 7fbe ad36 b7bd
-0.029088162 -0.2891919 -0.048950642 0.78565115 -0.07404011 2.032765 -1.6045282 1.2086526
0.5735134 0.73684716 0.07485086 1.0064516 0.0014559809 0.02908873 0.09441531 0.017487582
0.1091297 -0.22787853 -0.112182885 -0.5258463 0.06414947 -1.4599009 -0.014824469 -0.65886503
0.63556486 1.0505567 0.98829055 0.9874968 0.1337468 -0.33378845 -0.029118815 0.3917561
-0.033864975 -0.12584138 -0.06517886 -0.6706658 -0.049898118 1.6251416 -0.010719534 -0.6084516
-1.4310323 -1.8903264 0.18315779 0.5141728 -0.044806987 0.065693125 0.4451844 0.049804963
-0.006327562 -0.018181413 -0.06361971 0.0765945 -0.0060578906 -0.45383582 0.09549368 -1.6546011
-0.17782637 0.13676122 -0.076873615 0.18185113 -0.05814009 -0.29251656 -0.24976905 -0.089459755

conv2.lin_l.bias f4 [4]
00000000: 1a4b 0dc0 097e b5bf 14f4 88bf bab4 a8bf
-2.2077088 -1.4179088 -1.0699487 -1.3180153

conv2.lin_r.weight f4 [4, 16]
00000000: 8d1f c6bd b1dc 103f 4965 94be 0005 ebbf
00000010: ff22 783c 9f60 4cc0 da47 8c3f e6aa 68bf
00000020: bbdf 6fbf 20fb a9bf 6adf 1fbf dc2b 88bf
00000030: 5503 0ebe 0b44 0abe b200 43be abe7 6cbe
00000040: b56e c73f bcd8 bdbf 4e9d dbbc 5727 77bf
00000050: f905 e13f f7b1 87bf c509 a3be 83c0 99bf
00000060: d618 d0bc e8e2 17bd b731 1540 e884 17bc
00000070: ecee ed3f f042 0d3d 379d 88bd e931 3a40
00000080: b768 18bd ec3b a9bf 64a7 66be 0bf0 e3bf
00000090: 1a3f 3fbe 0931 963c 78ab 62be b01e c3bf
000000a0: dda6 99bf 085b c1bf 00de 68be 0097 fcbe
000000b0: ff05 a8bc 30a0 9bbd eeb5 3240 fd69 f93d
000000c0: 23d3 763d b29f 383e fe99 f03f c42f d63d
000000d0: 5f5e 443d 3536 26bf 0734 86bf 3430 bcbe
000000e0: 6292 40bf 60db 74bf 8a98 6ebf 7710 39bf
000000f0: 96d0 a4ba d685 693d f7b1 8ebe 947a b4be
-0.096739866 0.5658675 -0.28983524 -1.8360901 0.0151450625 -3.1933973 1.0959427 -0.9088577
-0.9370076 -1.3279762 -0.6245028 -1.0638385 -0.13868459 -0.13502519 -0.19043234 -0.2313525
1.558066 -1.4831767 -0.026808407 -0.965444 1.7579948 -1.0601186 -0.3184339 -1.2011875
-0.025402468 -0.03708163 2.3311594 -0.009247996 1.8588538 0.034487665 -0.06670611 2.9092963
-0.03720924 -1.3221412 -0.22524792 -1.780763 -0.18676415 0.018333929 -0.22135723 -1.524374
-1.2004048 -1.5105906 -0.22740936 -0.49333954 -0.020510672 -0.07598913 2.792354 0.12178419
0.06025995 0.18029669 1.8796995 0.10458329 0.04794156 -0.64926463 -1.0484627 -0.36755526
-0.7522336 -0.9564724 -0.93201506 -0.7229075 -0.001257437 0.0570124 -0.2787015 -0.3524977
